
Train samples are: 6244
Test samples are: 1562
Classes are: 6
BATCH: 16
WIDTH: 150
HEIGHT: 150
[INFO] compiling model...
_________________________________________________________________
Layer (type)                 Output Shape              Param #   
=================================================================
conv2d_1 (Conv2D)            (None, 148, 148, 32)      896       
_________________________________________________________________
activation_1 (Activation)    (None, 148, 148, 32)      0         
_________________________________________________________________
max_pooling2d_1 (MaxPooling2 (None, 74, 74, 32)        0         
_________________________________________________________________
conv2d_2 (Conv2D)            (None, 72, 72, 32)        9248      
_________________________________________________________________
activation_2 (Activation)    (None, 72, 72, 32)        0         
_________________________________________________________________
max_pooling2d_2 (MaxPooling2 (None, 36, 36, 32)        0         
_________________________________________________________________
conv2d_3 (Conv2D)            (None, 34, 34, 64)        18496     
_________________________________________________________________
activation_3 (Activation)    (None, 34, 34, 64)        0         
_________________________________________________________________
max_pooling2d_3 (MaxPooling2 (None, 17, 17, 64)        0         
_________________________________________________________________
flatten_1 (Flatten)          (None, 18496)             0         
_________________________________________________________________
dense_1 (Dense)              (None, 64)                1183808   
_________________________________________________________________
activation_4 (Activation)    (None, 64)                0         
_________________________________________________________________
dropout_1 (Dropout)          (None, 64)                0         
_________________________________________________________________
preds (Dense)                (None, 6)                 390       
=================================================================
Total params: 1,212,838
Trainable params: 1,212,838
Non-trainable params: 0
_________________________________________________________________


4368/4370 [============================>.] - ETA: 0s - loss: 0.0248 - acc: 0.9902Epoch 00336: val_acc improved from 0.88581 to 0.88634, saving model to ./output/weights-improvement-336-0.89.hdf5
…
