
[INFO] Loading dataset...
Train samples are: 5750
Test samples are: 1438
Classes are: 3
BATCH: 16
WIDTH: 150
HEIGHT: 150
[INFO] compiling model...
_________________________________________________________________
Layer (type)                 Output Shape              Param #   
=================================================================
conv2d_1 (Conv2D)            (None, 148, 148, 32)      896       
_________________________________________________________________
activation_1 (Activation)    (None, 148, 148, 32)      0         
_________________________________________________________________
max_pooling2d_1 (MaxPooling2 (None, 74, 74, 32)        0         
_________________________________________________________________
conv2d_2 (Conv2D)            (None, 72, 72, 32)        9248      
_________________________________________________________________
activation_2 (Activation)    (None, 72, 72, 32)        0         
_________________________________________________________________
max_pooling2d_2 (MaxPooling2 (None, 36, 36, 32)        0         
_________________________________________________________________
conv2d_3 (Conv2D)            (None, 34, 34, 64)        18496     
_________________________________________________________________
activation_3 (Activation)    (None, 34, 34, 64)        0         
_________________________________________________________________
max_pooling2d_3 (MaxPooling2 (None, 17, 17, 64)        0         
_________________________________________________________________
flatten_1 (Flatten)          (None, 18496)             0         
_________________________________________________________________
dense_1 (Dense)              (None, 64)                1183808   
_________________________________________________________________
activation_4 (Activation)    (None, 64)                0         
_________________________________________________________________
dropout_1 (Dropout)          (None, 64)                0         
_________________________________________________________________
preds (Dense)                (None, 3)                 195       
=================================================================
Total params: 1,212,643
Trainable params: 1,212,643
Non-trainable params: 0
_________________________________________________________________
[INFO] training...
Train on 4024 samples, validate on 1726 samples


....




3984/4024 [============================>.] - ETA: 0s - loss: 0.0084 - acc: 0.9975Epoch 00407: val_acc improved from 0.94844 to 0.94902, saving model to ./output/weights-improvement-407-0.95.hdf5
…
